plant_growth_model.pth (torch, 39798 bytes, 6 tensors)

fc1.weight f4 [128, 6]
00000000: 0155 5a3d d243 6cbe 2cea 4e3e 85f8 843e
00000010: 8731 a63c 1d5d 7b3d fc89 3f3e ab91 90be
00000020: c5b8 b7be 9040 a33e cae4 9fbe 1e2d b9be
00000030: 11e1 823e 977e 103d f8a0 36be b22f a1be
00000040: 88c0 423e 196c afbd f24c 843e 7fdc 8ebe
00000050: 7803 abbe 28b0 bf3d b493 54be 257a 7fbe
00000060: 8c55 18be 77bf 213e ee9a 5bbe cfa8 a13d
00000070: e0a6 85bd 1e13 ce3c 8088 88bb cf95 92be
00000080: d85b fcbd 005d c8bd ecef c0bd 80b6 f0bc
00000090: 1b9f 8ebd 566c 8c3e 1b41 79be 4bfb 9a3d
000000a0: 6cab e5bc 22d8 b338 0ab2 373e 31a3 733d
000000b0: 0505 78be b34e b63e eaf5 983e c4f5 e63c
000000c0: 2856 da3d 04dd 9cbd 00ee 783a 60e5 3b3e
000000d0: 5055 31bd 2491 c5be a25a aabe 6faf a1be
000000e0: a8ff ca3e 78be fa3d 9405 23be 60bf 39bd
000000f0: 9ceb 003d a788 433e 0fd9 b4be 0237 4e3d
00000100: bf65 983e d768 58be 8067 233b 34e4 c2bd
00000110: 1a1e 47be 6cb9 953e 9377 4abe a186 afbe
00000120: c064 1e3d 44c1 a1be e9a2 763e 0410 87be
00000130: d2e9 cd3e a9af 3ebe f3f3 33be a094 d63d
00000140: d499 10be 4e0b ae3e 408f cdbb 70a7 77bd
00000150: 0b86 02be 2bdf 163e e0a6 cebe 5fda c93e
00000160: 4aa0 5e3e c8f7 593e af1d 65be 4034 fd3c
00000170: 78ca e5bd de12 9d3e b4d0 8bbe 8cbd b7bd
00000180: ee03 8dbe f031 803d 9b9d 6fbe 8e05 03be
00000190: 7840 9fbe 40c0 8bbd ac81 09be 9874 9bbe
000001a0: deaa dc3c 453c 80bd cc77 bbbd 8889 2a3e
000001b0: d49a 4dbe 77ff 67be 80ca 1d3e 809c b73c
000001c0: c4ff e3bd 80ed 593b b8e1 66bd f087 933d
000001d0: e43b 7a3e cc4d 753e c0a4 40bc 949d aabe
000001e0: 9799 cbbe 15bd 65be 9e85 863e 04f4 af3e
000001f0: 1c5c 023e 3ca0 debd bc95 e73d 1e43 683e
00000200: 1e2d 7ebe 7e86 b73c 02bb 793e fafb 863e
00000210: 8cc7 c63e 4046 afbb 17da bdbe 09de 9ebe
00000220: 6a03 83be ce0d 4dbe f00f 9b3e ba59 c4be
00000230: d9e6 cebe 8469 bd3e 0485 313e 66c2 46be
00000240: 48c9 523d 3aaf 803e 1471 95bd d030 293d
00000250: f0af 6d3d a77d 68be a84e 3c3e b393 5fbe
00000260: 0048 06bd 60ba 973e 2679 36be 8acb 0ebe
00000270: 4219 b13e 0077 06bd f825 99be 6de4 25be
00000280: 10a1 f8bc ba32 71be ec8b 2cbe 17e8 7bbb
00000290: 5e2e cbbe 82fb 99be e7bc 213e 3d3f 273e
000002a0: 0f8f ab3e d7bf 713e 3434 683e 6494 2d3b
000002b0: c068 cabd 4093 c43e fdce 1e3e 5468 b2be
000002c0: 1b8e 3bbe 5c7c 913e 7d89 d0be 93d0 a43e
000002d0: 7c76 053e 8ee6 aabe 2612 cdbe 4446 6f3e
000002e0: 4a57 c4be 72a1 a8be 9b87 6a3e 28b2 0bbc
000002f0: 6a3b 88bb ccbc 94be cf23 e23d 305d 713e
00000300: 39ce 9a3e 212b 653e 67ec 69bd 2250 c13e
00000310: a40d 813e dfba 8e3e e805 753e 9a0b 133e
00000320: edff 7e3e 5163 b6be 467d 9b3e 4e64 b4bd
00000330: 3f62 5cbe 00af c2bb 39c8 7ebe 6828 0dbe
00000340: 16a8 c5be 7376 79be befc 6cbd 4f54 be3c
00000350: 73a6 20bd 58b2 fabd 3839 bb3e 313a 1b3e
00000360: a8d3 043d 67da 36be 4236 303d de1d 773e
00000370: 79ec acbe cf79 cc3e fb5b 513e a51a c13e
00000380: bb09 ba3d 145f b43e ad4c a73e 69ce 23be
00000390: 3e70 77be 2ad1 46be 1273 0c3e 941d 1a3e
000003a0: 6d85 97be 50b0 313e b142 8dbe b01a cc3e
000003b0: 08e0 903e a2c3 3cbe c40e f73b 3950 203e
000003c0: 7bb2 a0bd 8c2a 88bd 1df6 33be 1ea3 e23c
000003d0: 790a 98be fc28 d73d 7efa bebe 2579 cd3e
000003e0: 22c9 513e 66c1 a6be b603 a93e 1fe3 41bd
000003f0: fb11 de3d 9b69 f13d e985 c73d 072f cc3e
0.053303722 -0.23072746 0.20206517 0.25970855 0.020287288 0.061368097 0.1870498 -0.28236136
-0.35883155 0.31885195 -0.3122924 -0.36167234 0.25562337 0.035276975 -0.17834842 -0.314817
0.19018757 -0.0856554 0.25839955 -0.279026 -0.33401084 0.09359771 -0.2075947 -0.24948938
-0.14876384 0.15795694 -0.2144582 0.07893526 -0.065259695 0.0251556 -0.0041666627 -0.2862992
-0.12322205 -0.09783363 -0.094207615 -0.029383898 -0.06963941 0.27426404 -0.24341242 0.075674616
-0.028035842 8.575643e-05 0.1793901 0.059481803 -0.24220665 0.35606918 0.29875118 0.028193362
0.10660964 -0.07659343 0.0009495914 0.18349218 -0.04329425 -0.38587296 -0.33272272 -0.31579158
0.39648175 0.1224336 -0.15920097 -0.045348525 0.031474695 0.19095097 -0.35321853 0.05034543
0.29765126 -0.21133743 0.0024933517 -0.095161825 -0.19445077 0.29243028 -0.19772176 -0.342824
0.0386703 -0.31592762 0.24085583 -0.26379406 0.40217453 -0.18621697 -0.17573528 0.10477567
-0.14121181 0.33993 -0.0062731802 -0.060462415 -0.12746446 0.1473357 -0.4036169 0.39424416
0.21740833 0.21285927 -0.22374605 0.030908704 -0.112202585 0.30678457 -0.27307665 -0.089717
-0.2754206 0.06259525 -0.23399965 -0.12795088 -0.31103873 -0.06823778 -0.13428372 -0.3036239
0.026936945 -0.062614955 -0.09153709 0.16654027 -0.20078593 -0.22656046 0.15409279 0.022413492
-0.11132768 0.0033253133 -0.056367606 0.072036624 0.24436909 0.23955458 -0.011758029 -0.33323348
-0.39765617 -0.2243541 0.26273817 0.34365857 0.1273045 -0.10870406 0.113078564 0.22681853
-0.24821898 0.022402998 0.24387744 0.26364118 0.38824117 -0.0053489506 -0.37080452 -0.31028774
-0.25588542 -0.20024797 0.30285597 -0.38349706 -0.40410498 0.36994565 0.17335898 -0.19410095
0.051461488 0.25133687 -0.072969586 0.041306317 0.058029115 -0.22704183 0.1838938 -0.21833687
-0.03278351 0.2963438 -0.17819652 -0.13944831 0.34589583 -0.03282833 -0.2991178 -0.16200419
-0.030350238 -0.23554507 -0.16850251 -0.0038437897 -0.39683813 -0.30074698 0.15794717 0.16332717
0.33507583 0.23608337 0.22676164 0.0026486153 -0.09883261 0.38393593 0.15508647 -0.3484522
-0.18315928 0.2841519 -0.40729895 0.3219038 0.1303348 -0.33379024 -0.4005291 0.23366648
-0.38347846 -0.32935673 0.22903292 -0.0085263625 -0.0041574733 -0.2905029 0.11041986 0.23570704
0.3023546 0.22379734 -0.057110216 0.3775645 0.2520572 0.27876946 0.23928034 0.14359894
0.24902315 -0.35622647 0.30369014 -0.08808194 -0.21521853 -0.005941272 -0.24881066 -0.13784945
-0.38604802 -0.24361591 -0.05785822 0.02323356 -0.03922124 -0.122410476 0.36567092 0.15158917
0.032428414 -0.17856751 0.043020494 0.24132487 -0.33774164 0.39936683 0.20445244 0.3771564
0.09083887 0.3522879 0.32675686 -0.15996708 -0.24163911 -0.19415727 0.13715771 0.15050346
-0.29593983 0.17352414 -0.27589944 0.3986411 0.28295922 -0.18434003 0.007539602 0.15655603
-0.078465424 -0.0664874 -0.17574354 0.027665671 -0.2969549 0.10505864 -0.37300485 0.40131488
0.20486882 -0.32569426 0.33010644 -0.04733574 0.10843273 0.11787721 0.09742338 0.3987963

fc1.bias f4 [128]
00000000: cc0b 3fbe f0c2 9dbd f084 b4bd 785d 21bd
00000010: f8eb 96be c0e1 aa3c a156 ab3e d58f 50bc
00000020: b808 633e 78be 83bd 193d 41be afa1 43be
00000030: d3c8 cf3e 2087 113c 428f b7be 5e71 8f3e
00000040: c84e e13d 56b6 b13e 69bc d0be 8e0d 13be
00000050: 8842 d93d b46e 923e 4a49 05be 8600 a33e
00000060: 0bb6 68be 582a ab3d 723c bd3e 21dc 2b3e
00000070: 5560 ae3e 5e83 203e 2c3e 953e 709a 9cbe
00000080: b5a0 703e e327 003e b260 08be 14e1 4ebe
00000090: 6d64 acbe e06a c8be 5635 303e 5505 453e
000000a0: 224c 6a3e b257 c33e f0f2 903e cc62 89bd
000000b0: 3cd5 ecbd 468f a3be 0cc8 9fbe 0034 a83a
000000c0: 3142 a1bd 0952 bfbe 71fc d43d f4ac 2dbe
000000d0: 6c8b 3a3e 9994 d0bc 802e c7bd c15c 293e
000000e0: 5a9b b93e 8e44 01be 5fd0 873d f4b2 7bbe
000000f0: f172 1cbe eea1 6abe cc24 663e 974a f9bd
00000100: c25b 95be 20a1 92bd c842 f63d e8f8 8bbe
00000110: a852 64be bc8e 953e 3ba7 913e ce9f 823e
00000120: f6fe cb3e 520e 8a3e 23e6 8f3c 4956 6cbe
00000130: 3e5d c33e 528d b43e 9d07 ba3e e487 bdbe
00000140: c661 bd3e 42d4 b43e 793d 62be 88be d2bd
00000150: c9a8 f3bc 8240 a2be 0c91 303e 7c05 a3bd
00000160: 83ed 1b3e 081c 9a3e a82e 4cbe 4086 503e
00000170: 33d6 8dbd f8e6 8d3e e03b 71bd 60a8 873c
00000180: 6149 093d ecb3 673e 2622 313e 280c 87bd
00000190: eea9 0fbe 6f29 30bd 1a2a 3b3e 8578 98bd
000001a0: 001c e23d 0207 41be 002f 80bc 896a ccbe
000001b0: a8fc 19bd f48a 5b3e 0063 c9ba 4003 adbe
000001c0: f432 623e 2ccd 8f3e ce68 993e 5fdb cbbe
000001d0: 1244 bbbe e8b0 193d 6bf2 f8bc 3642 56be
000001e0: c45c cebe a6eb 81be b89e c13e 8f47 d7bd
000001f0: f7ac a53d b6b6 0ebe d851 64bd 222e b13e
-0.18656844 -0.07703197 -0.08814418 -0.03939578 -0.29476905 0.0208596 0.3346453 -0.012729605
0.22171295 -0.064328134 -0.18870963 -0.19104646 0.40582904 0.008882314 -0.35851485 0.2801618
0.110013545 0.34709424 -0.40768746 -0.1436064 0.10608393 0.28600085 -0.13016239 0.31836337
-0.22725694 0.08357686 0.3696018 0.16783191 0.3405787 0.15675113 0.29148996 -0.30586576
0.23498805 0.12515216 -0.13318136 -0.20203048 -0.3367037 -0.3914404 0.17207846 0.19240315
0.22880605 0.38152844 0.28310347 -0.06708297 -0.11564109 -0.31945246 -0.3120731 0.001283288
-0.07873953 -0.37367275 0.10399712 -0.16960508 0.18217248 -0.025461482 -0.09725666 0.16539289
0.36251336 -0.12623808 0.066315405 -0.24579984 -0.15278222 -0.22913334 0.22474974 -0.1217243
-0.29171568 -0.071596384 0.12024456 -0.27338338 -0.22297156 0.2921046 0.284479 0.25512546
0.39842957 0.2696405 0.017565792 -0.2307979 0.38157076 0.3526407 0.36333933 -0.3701774
0.36988658 0.3531819 -0.22093762 -0.10290247 -0.029743569 -0.3168984 0.17242831 -0.079600304
0.15227322 0.3009951 -0.19939673 0.20363712 -0.06925621 0.27715278 -0.058894992 0.01655978
0.033517245 0.22627228 0.17298183 -0.065941155 -0.14029667 -0.043008264 0.18277779 -0.07444862
0.11040497 -0.1885033 -0.015647411 -0.3992503 -0.037594467 0.21439725 -0.0015364587 -0.33791542
0.2208975 0.2808622 0.29962772 -0.39815804 -0.3657537 0.037522227 -0.030389031 -0.20923695
-0.4030515 -0.25375098 0.37816405 -0.105116956 0.08089631 -0.13936886 -0.055742115 0.3460551

fc2.weight f4 [64, 128]
00000000: b210 723c dd3e a93d dc05 b4bd 940a 9bbd
00000010: 8340 143d c02d 31bc e702 8ebd 7469 40bc
00000020: 20aa 1fbc 1ce6 c33c 5066 d23c 5285 07bd
00000030: e4b5 9ebd 9178 43bd fa38 ecbc 5196 13bd
00000040: 2821 38bc a050 a1bc 9d9b 60bd 1511 61bd
00000050: 80d9 5b3a facc 10bd 7b6f 923d 4880 85bd
00000060: 7adc 1a3d 0024 963b e1b8 aabd 554e 40bd
00000070: e139 b23d ab16 d7bc 943b 933c 8747 6d3c
00000080: d58b 313d 869f 1dbd b020 c93b 10fc 2e3d
00000090: 696b 3e3d e293 a83c c2a7 4a3c 5981 883a
000000a0: 4fbe 7b3c 42cf 35bc bce4 823c e876 81bd
000000b0: ffb7 8bbd 90c1 0e3c c368 9abd ccbb 1dbd
000000c0: 086d 67bd a696 7cbd 981c 96bd 352e 623d
000000d0: 12e2 1d3d af27 96bc c005 6fbd 9aba 743d
000000e0: 5f4f 93bd 0460 9fbd 3cd4 03bd 808f 313a
000000f0: 2208 5cbd 523c abbc a815 c13c 58d6 853d
00000100: d6b6 01bd 8712 a0bd 1810 163c 1308 99bd
00000110: 63a9 b03d e07a 40bb 82d5 a6bd ee20 c43c
00000120: e085 06bc 7e0a d7bc 3a1c ebb9 0d49 57bd
00000130: f056 043c c020 56bd b5e6 31bd b03a babb
00000140: d09b b1bc 8225 113d 32e0 59bd 9091 5e3c
00000150: 9cb8 3bbd 040b 8fbd bd4b f33c cd3c a2bd
00000160: e770 ddb9 4d6a 533c bc72 89bd 98e7 3d3c
00000170: 8cd9 a7bc ac3f 98bd 6079 12bc bd0c a33d
00000180: 5a96 01bd 8039 693a e8da d2bc ec23 1fbd
00000190: 2904 35bd ed06 983d 0061 8bbd fed5 573d
000001a0: c00e a4bd 86b2 70bd 8832 b63c bc4b 92bd
000001b0: 28c4 3b3c b298 333d c00b 38bb aa30 223d
000001c0: 2123 963d cefd 083d ee5a 823d 7693 263d
000001d0: 34f7 5b3d 5b7e f7bc 095f 14bc d506 a2bc
000001e0: e487 82bd 0633 3e3d 20aa 9abd 1724 7fbd
000001f0: 9d41 473d 9315 af3d 2f2d 843d 1478 98bd
00000200: a4fc 743d 705a 953c 000b 59bb ea2e 443d
00000210: d840 743d 35d6 59bd 38ee 61bd 012d 213c
00000220: bd03 21bd aeee 89bd aef5 5d3d 02df 5a3d
00000230: bd3d 22bd a03c 023b 3630 4cbd 98af 9bbc
00000240: 7869 693c 2d52 9bbb 2e22 763d 6460 963c
00000250: 8023 9d3c 9f15 723c 7618 a0bd b3ed 873d
00000260: 20ed dfbc 1c5e 18bd 375a 88bd 5556 2bbc
00000270: 8d66 ddbc 0741 35bd db23 a33d df96 8dbc
00000280: 7a41 33bd 3532 5a3b 1c81 b7bc 76f4 803d
00000290: 6501 583d f22c 213d 3121 0a3d b4e5 d9bc
000002a0: 8074 94bd c917 21bc e51f a43d 1fc7 98bd
000002b0: e247 69bd d2ae 5d3d 6eb9 683d 9b19 16bd
000002c0: 1252 23bd b23f 553d dc77 8b3c 9944 7ebd
000002d0: ae5f 9abd 66ea 9a3c 7045 21bc 541e ce3b
000002e0: 4f69 813d d632 3d3d 94bb 17bd ab6c 9e3d
000002f0: 80cb 883d 322f 583c bb9b 9b3d 90d4 8b3b
00000300: 48e6 93bd 5c2c f33c a230 633d 1c10 823c
00000310: e96e 503d 8846 153c f7f8 a13d 5932 193d
00000320: 6f49 973d 633f 913d 80cc 06bc e238 593d
00000330: c40b f13c d109 5a3d 3448 aebc 03b2 07bd
00000340: d0ee 09bd 309e bf3c 8b50 9fbd 8de3 8c3d
00000350: 9cd1 fbbb 1046 2e3c 9154 463d 189e d1bc
00000360: c9f6 0d3d dfcd 1dbd a730 9a3d b051 6dbd
00000370: 3c12 4bbd 818c 72bd 807f 1a3b 88c6 0b3c
00000380: 5aac 00bd 7170 95bd e866 4fbd f0f5 d7bc
00000390: 565e 46bc 504f bfbd d0e9 d43b ad2f a83c
000003a0: 162c 89bd b393 26bd 8e8e 4c3d 1e86 19bd
000003b0: f22e 80bd 1569 8d3d 44c8 0b3d 1ee9 553d
000003c0: 7e9c 7c3d a82b d03c 25dd 623d 20f2 f7bc
000003d0: 36cd ec3c a38e 6dbd fba6 b1bd 90a5 c4bc
000003e0: d8a4 623c 9850 853c 8627 1f3d be11 813c
000003f0: 9b04 f33c 7377 aabd e8e7 c53c 8021 593c
0.014774488 0.08263943 -0.0879018 -0.07570377 0.036194336 -0.01081413 -0.06934147 -0.011743892
-0.009745151 0.023913436 0.025683552 -0.03308613 -0.07749537 -0.047722403 -0.028835762 -0.036032025
-0.011238374 -0.019691765 -0.054835904 -0.05494793 0.0008386597 -0.03535173 0.071501695 -0.06518608
0.03780792 0.0045819283 -0.08336044 -0.046949703 0.08702446 -0.026255926 0.017972745 0.0144823855
0.043346245 -0.03848221 0.00613793 0.042720854 0.046489153 0.020578329 0.012369098 0.0010414525
0.015365197 -0.011096777 0.01597821 -0.06321508 -0.06822204 0.008713141 -0.07539513 -0.038509175
-0.056500465 -0.061667107 -0.073296726 0.055219848 0.038545676 -0.01832947 -0.058355093 0.05974827
-0.07192873 -0.077819854 -0.032184824 0.00067733973 -0.053718694 -0.020902786 0.023569897 0.065350235
-0.031668507 -0.07816034 0.0091591105 -0.07472243 0.08626058 -0.0029370114 -0.08146192 0.023941483
-0.008210629 -0.02625012 -0.00044843723 -0.0525599 0.008077368 -0.052277327 -0.04343291 -0.0056832656
-0.021680743 0.03543616 -0.053192325 0.0135845095 -0.045830354 -0.06984523 0.0296992 -0.07921753
-0.00042236524 0.012903762 -0.06711337 0.011590861 -0.020489477 -0.074340194 -0.008940071 0.07961414
-0.031637527 0.0008896813 -0.025739148 -0.038852617 -0.04419342 0.07423196 -0.06805611 0.052694313
-0.08010626 -0.058764003 0.022240892 -0.071433514 0.0114603415 0.043846793 -0.0028083175 0.03959719
0.07330919 0.033445172 0.06365 0.040667973 0.05370255 -0.030211618 -0.009055861 -0.019778648
-0.06373575 0.04643538 -0.0755198 -0.062290277 0.048646558 0.08549037 0.064539306 -0.07444778
0.05981125 0.0182316 -0.0033118129 0.047896303 0.059632152 -0.0531828 -0.055158824 0.00983739
-0.039310206 -0.06734978 0.054189377 0.053435333 -0.03960966 0.001987256 -0.049850665 -0.019004628
0.014246337 -0.0047400207 0.06009119 0.01835651 0.019181967 0.014775663 -0.078171656 0.066371344
-0.02733475 -0.037199125 -0.06657832 -0.010457595 -0.02702644 -0.044251468 0.07965823 -0.017283855
-0.043763615 0.0033294086 -0.022400431 0.06296627 0.052735705 0.039349504 0.03372306 -0.026598789
-0.07248783 -0.009832331 0.08013896 -0.07459854 -0.05695332 0.0541218 0.056817465 -0.036645513
-0.03987319 0.052062698 0.017024927 -0.06207714 -0.07537781 0.018910598 -0.009843215 0.0062902365
0.06318914 0.04619106 -0.037044123 0.077355705 0.066794395 0.013194846 0.075980626 0.004267283
-0.07221657 0.029684238 0.0554663 0.015876822 0.050887022 0.009111054 0.079088144 0.03740153
0.07387053 0.07092168 -0.008227468 0.053032763 0.029424556 0.053232018 -0.021274664 -0.03312875
-0.033675015 0.02339086 -0.07779034 0.06879339 -0.0076848995 0.010636821 0.048420493 -0.02558808
0.03465918 -0.038526412 0.07528811 -0.05793923 -0.049577937 -0.059216026 0.002357453 0.00853122
-0.031414367 -0.07296837 -0.05063525 -0.02636239 -0.012107452 -0.093412995 0.006497599 0.020530546
-0.06697862 -0.0406682 0.04994064 -0.03748142 -0.06258954 0.069048084 0.034126535 0.05222427
0.06167268 0.025411442 0.05538668 -0.030266821 0.028906446 -0.057997357 -0.08674427 -0.024004728
0.013833247 0.016273782 0.03885605 0.01575553 0.029665282 -0.083235644 0.024158433 0.013252616

fc2.bias f4 [64]
00000000: 5e25 acbd fd66 773d 3040 8ebd d205 ffbc
00000010: ca31 7c3d 36a9 423d f8ea abbc 9089 e73c
00000020: 7a10 89bd 675e 553d d63a 4f3d 9fcf abbd
00000030: 7875 373c ac76 51bd 5426 76bd 4a20 a3bd
00000040: df04 9b3d 17d0 adbd af15 80bd ae49 ec3c
00000050: 8128 483c a61b a3bd 72ec 26bd 73a6 2dbd
00000060: f8b6 ec3b fed8 b63b 683b b83c 5b9b 8abd
00000070: 6a5b 563d 9379 84bd 7f21 883d 34c9 72bd
00000080: 69bc 313d d2a2 89bb f5a8 b33d a913 98bd
00000090: 3335 1abd 8cdd 65bd ddde ae3d 951d 9dbd
000000a0: e0bd 7cbc 3158 883d 6024 373d 3442 41bd
000000b0: ff27 813d 8458 96bd 5728 9e3c 46b6 6d3d
000000c0: 6f29 9bbd 8493 3c3d 50b7 83bc 4c1a fcbc
000000d0: be24 ac3d d933 ae3d ce78 0dbc 7187 9fbd
000000e0: f868 143d e0ce cbbc 8882 6d3c c465 5e3d
000000f0: a563 08bd 2e0f 0e3d 03bf 9bbd 2afb 343d
-0.08405565 0.06040095 -0.069458365 -0.031130705 0.06157092 0.047524653 -0.020986065 0.028263837
-0.06692596 0.052091982 0.05059322 -0.0838921 0.01119744 -0.051138565 -0.060095146 -0.07965143
0.075692885 -0.084869556 -0.06254136 0.028843727 0.012216688 -0.07964258 -0.040752836 -0.042395066
0.00722396 0.0055800667 0.022489265 -0.06767913 0.052333273 -0.06468501 0.06647014 -0.059273914
0.043392573 -0.004200318 0.0877246 -0.07425625 -0.03764839 -0.056119487 0.085386015 -0.07671658
-0.015426129 0.06657446 0.044712424 -0.047182277 0.06306457 -0.07341102 0.019306345 0.058035158
-0.07576262 0.04603912 -0.016078621 -0.030774258 0.084054455 0.08505983 -0.008634759 -0.07789505
0.03623292 -0.02487892 0.014496453 0.05429627 -0.033298153 0.034682445 -0.07604792 0.04418484

fc3.weight f4 [2, 64]
00000000: a972 e23d 2e5c 88bc c873 2dbd ca11 c53d
00000010: ee70 923d f025 f3bd 3e48 5d3d 96d1 b5bd
00000020: a04b e33d 2a84 e5bd 28bd 7abd 98f9 a9bd
00000030: 4eb1 9f3d 9b78 2cbd 90fc 473d 082a 35bd
00000040: 029b ad3d c5ac 833d 3805 57bb 58d6 5dbd
00000050: cf38 6bbd e8c2 fd3c cfef 84bd c414 7e3d
00000060: 136d a9bc d374 883b d090 7abc 2309 0cbd
00000070: 18e7 bfbc 92a2 4c3d 6e58 69bd f29a ad3d
00000080: 9872 db3d 5cc7 c5bd 0e9e 973d 8926 5e3d
00000090: 44f3 003d a039 c6bc 708c 0b3d 90b3 c63c
000000a0: 8e0a ea3d 50ca 47bd 0ef8 c9bd 155e 5cbb
000000b0: e089 33bd ae46 57bd 5768 acbd 4f22 c23d
000000c0: ff53 293c 54c8 99bd 0438 693d 921b bc3d
000000d0: 7df8 bebd d8f2 a5bd 1513 be3d be06 493d
000000e0: 54af 643d e476 14bd ff59 abbd 54ce ab3d
000000f0: 55f7 913d c003 9a3d 9ba2 efbb 208f a3bd
00000100: 41c4 98bd d90b 903d 841c 1c3d 0821 8b3d
00000110: 54a6 59bd 92bb b2bd dc3c cfbd 4a01 b23d
00000120: 32e4 b63d babf ae3d 4ef9 bebd f835 2f3d
00000130: 1466 9f3d 1dc8 13bd d6af 863d f6ca b3bd
00000140: 23d3 79bd d56a efbd 2e0f dbbd df55 9cbb
00000150: 98fa babd d5c1 b6bc d685 0e3d 080f 22bd
00000160: a574 b6bc ec6b 9e3d 9af8 bebd a29d d33d
00000170: a48a edbd 498e 14bd d7c8 993d cd29 1a3c
00000180: 6240 623d 4a65 6d3c 1211 a5bd 35e9 e83d
00000190: 0086 913c ea37 f23d b271 a93d 268a ab3d
000001a0: c039 5c3b c04c 2e3d 71d0 53bd 87d6 bf3d
000001b0: 08ea de3c 7824 9a3d 8c13 5abc d16b d13d
000001c0: eb71 a63d ce03 7bbd 6041 e23b 181f b6bd
000001d0: a367 e0bd 30e6 bbbc d914 ee3d c55f c23d
000001e0: b88f 98bd ea9b c93d 5f70 eb3d 6a25 fabd
000001f0: 5ff9 fa3d 341c e1bd 4867 e5bd 741b f33d
0.11057026 -0.016645517 -0.042346746 0.096225336 0.07150446 -0.118724704 0.054023974 -0.08877866
0.11098409 -0.11206849 -0.06121555 -0.08299559 0.0779749 -0.042107206 0.048824847 -0.044229537
0.08476831 0.064294375 -0.0032809507 -0.054159492 -0.057427224 0.030976728 -0.06491052 0.062031522
-0.020681893 0.004164317 -0.015293315 -0.0341884 -0.023425624 0.049959727 -0.0569691 0.08476819
0.107152164 -0.096571654 0.074031934 0.05423597 0.031481996 -0.0241974 0.03406948 0.024255544
0.114277944 -0.048776925 -0.09861766 -0.0033625413 -0.04383266 -0.05255764 -0.08418339 0.094792
0.010334968 -0.07508913 0.056938186 0.09184946 -0.09324739 -0.081029594 0.09280983 0.049078695
0.05583127 -0.036246195 -0.08366775 0.08388963 0.07127253 0.075202465 -0.0073130853 -0.07986283
-0.074593075 0.0703351 0.038113132 0.067934096 -0.05313714 -0.087271824 -0.1011903 0.08691652
0.089302436 0.08532663 -0.09324895 0.042776078 0.07783142 -0.036079515 0.06576507 -0.08778946
-0.06099237 -0.116902985 -0.10696255 -0.004770979 -0.09129828 -0.022309223 0.034795605 -0.039565116
-0.022272417 0.07735428 -0.09324761 0.103328004 -0.11598709 -0.036268506 0.0750901 0.00940938
0.05523718 0.014489481 -0.080598965 0.11372606 0.017764091 0.11827071 0.08273639 0.08375959
0.0033603758 0.042553663 -0.051712457 0.0936709 0.027211204 0.07526487 -0.013310324 0.102256425
0.08127197 -0.061282925 0.006904766 -0.088926494 -0.10957267 -0.02293691 0.1162507 0.09490923
-0.07449287 0.09844191 0.114960425 -0.122141674 0.12254595 -0.109917074 -0.1120134 0.11870471

fc3.bias f4 [2]
00000000: 2891 fb3d 8671 b4bd
0.12283546 -0.088107154
